…
WARNING:tensorflow:From /home/mrahman/anaconda3/lib/python3.7/site-packages/keras/backend/tensorflow_backend.py:4115: The name tf.random_normal is deprecated. Please use tf.random.normal instead.

WARNING:tensorflow:From /home/mrahman/anaconda3/lib/python3.7/site-packages/keras/backend/tensorflow_backend.py:2018: The name tf.image.resize_nearest_neighbor is deprecated. Please use tf.compat.v1.image.resize_nearest_neighbor instead.

__________________________________________________________________________________________________
Layer (type)                    Output Shape         Param #     Connected to                     
==================================================================================================
s_input (InputLayer)            (None, 28, 28, 1)    0                                            
__________________________________________________________________________________________________
conv2d_1 (Conv2D)               (None, 28, 28, 16)   160         s_input[0][0]                    
__________________________________________________________________________________________________
max_pooling2d_1 (MaxPooling2D)  (None, 14, 14, 16)   0           conv2d_1[0][0]                   
__________________________________________________________________________________________________
conv2d_2 (Conv2D)               (None, 14, 14, 32)   2080        max_pooling2d_1[0][0]            
__________________________________________________________________________________________________
max_pooling2d_2 (MaxPooling2D)  (None, 7, 7, 32)     0           conv2d_2[0][0]                   
__________________________________________________________________________________________________
flatten_1 (Flatten)             (None, 1568)         0           max_pooling2d_2[0][0]            
__________________________________________________________________________________________________
s_z_mean (Dense)                (None, 10)           15690       flatten_1[0][0]                  
__________________________________________________________________________________________________
s_z_log_var (Dense)             (None, 10)           15690       flatten_1[0][0]                  
__________________________________________________________________________________________________
s_z (Lambda)                    (None, 10)           0           s_z_mean[0][0]                   
                                                                 s_z_log_var[0][0]                
==================================================================================================
Total params: 33,620
Trainable params: 33,620
Non-trainable params: 0
__________________________________________________________________________________________________
__________________________________________________________________________________________________
Layer (type)                    Output Shape         Param #     Connected to                     
==================================================================================================
t_input (InputLayer)            (None, 16, 16, 1)    0                                            
__________________________________________________________________________________________________
conv2d_5 (Conv2D)               (None, 16, 16, 16)   160         t_input[0][0]                    
__________________________________________________________________________________________________
max_pooling2d_3 (MaxPooling2D)  (None, 8, 8, 16)     0           conv2d_5[0][0]                   
__________________________________________________________________________________________________
conv2d_6 (Conv2D)               (None, 8, 8, 32)     2080        max_pooling2d_3[0][0]            
__________________________________________________________________________________________________
max_pooling2d_4 (MaxPooling2D)  (None, 4, 4, 32)     0           conv2d_6[0][0]                   
__________________________________________________________________________________________________
flatten_2 (Flatten)             (None, 512)          0           max_pooling2d_4[0][0]            
__________________________________________________________________________________________________
t_z_mean (Dense)                (None, 10)           5130        flatten_2[0][0]                  
__________________________________________________________________________________________________
t_z_log_var (Dense)             (None, 10)           5130        flatten_2[0][0]                  
__________________________________________________________________________________________________
z (Lambda)                      (None, 10)           0           t_z_mean[0][0]                   
                                                                 t_z_log_var[0][0]                
==================================================================================================
Total params: 12,500
Trainable params: 12,500
Non-trainable params: 0
__________________________________________________________________________________________________
__________________________________________________________________________________________________
Layer (type)                    Output Shape         Param #     Connected to                     
==================================================================================================
s_input (InputLayer)            (None, 28, 28, 1)    0                                            
__________________________________________________________________________________________________
conv2d_1 (Conv2D)               (None, 28, 28, 16)   160         s_input[0][0]                    
__________________________________________________________________________________________________
t_input (InputLayer)            (None, 16, 16, 1)    0                                            
__________________________________________________________________________________________________
max_pooling2d_1 (MaxPooling2D)  (None, 14, 14, 16)   0           conv2d_1[0][0]                   
__________________________________________________________________________________________________
conv2d_5 (Conv2D)               (None, 16, 16, 16)   160         t_input[0][0]                    
__________________________________________________________________________________________________
conv2d_2 (Conv2D)               (None, 14, 14, 32)   2080        max_pooling2d_1[0][0]            
__________________________________________________________________________________________________
max_pooling2d_3 (MaxPooling2D)  (None, 8, 8, 16)     0           conv2d_5[0][0]                   
__________________________________________________________________________________________________
max_pooling2d_2 (MaxPooling2D)  (None, 7, 7, 32)     0           conv2d_2[0][0]                   
__________________________________________________________________________________________________
conv2d_6 (Conv2D)               (None, 8, 8, 32)     2080        max_pooling2d_3[0][0]            
__________________________________________________________________________________________________
flatten_1 (Flatten)             (None, 1568)         0           max_pooling2d_2[0][0]            
__________________________________________________________________________________________________
max_pooling2d_4 (MaxPooling2D)  (None, 4, 4, 32)     0           conv2d_6[0][0]                   
__________________________________________________________________________________________________
s_z_mean (Dense)                (None, 10)           15690       flatten_1[0][0]                  
__________________________________________________________________________________________________
s_z_log_var (Dense)             (None, 10)           15690       flatten_1[0][0]                  
__________________________________________________________________________________________________
flatten_2 (Flatten)             (None, 512)          0           max_pooling2d_4[0][0]            
__________________________________________________________________________________________________
s_z (Lambda)                    (None, 10)           0           s_z_mean[0][0]                   
                                                                 s_z_log_var[0][0]                
__________________________________________________________________________________________________
t_z_mean (Dense)                (None, 10)           5130        flatten_2[0][0]                  
__________________________________________________________________________________________________WARNING:tensorflow:From /home/mrahman/anaconda3/lib/python3.7/site-packages/keras/optimizers.py:790: The name tf.train.Optimizer is deprecated. Please use tf.compat.v1.train.Optimizer instead.

WARNING:tensorflow:From /home/mrahman/anaconda3/lib/python3.7/site-packages/keras/backend/tensorflow_backend.py:3376: The name tf.log is deprecated. Please use tf.math.log instead.
…
2020-04-26 00:09:23.318410: I tensorflow/compiler/xla/service/service.cc:175]   StreamExecutor device (1): Tesla K40c, Compute Capability 3.5
2020-04-26 00:09:23.318429: I tensorflow/compiler/xla/service/service.cc:175]   StreamExecutor device (2): Tesla K40c, Compute Capability 3.5
2020-04-26 00:09:26.635646: I tensorflow/stream_executor/platform/default/dso_loader.cc:42] Successfully opened dynamic library libcublas.so.10.0
2020-04-26 00:09:26.982612: I tensorflow/stream_executor/platform/default/dso_loader.cc:42] Successfully opened dynamic library libcudnn.so.7

t_z_log_var (Dense)             (None, 10)           5130        flatten_2[0][0]                  
__________________________________________________________________________________________________
dense_2 (Dense)                 (None, 10)           110         s_z[0][0]                        
__________________________________________________________________________________________________
z (Lambda)                      (None, 10)           0           t_z_mean[0][0]                   
                                                                 t_z_log_var[0][0]                
__________________________________________________________________________________________________
concatenate_1 (Concatenate)     (None, 20)           0           dense_2[0][0]                    
                                                                 z[0][0]                          
__________________________________________________________________________________________________
dense_1 (Dense)                 (None, 1568)         17248       s_z[0][0]                        
__________________________________________________________________________________________________
dense_3 (Dense)                 (None, 512)          10752       concatenate_1[0][0]              
__________________________________________________________________________________________________
reshape_1 (Reshape)             (None, 7, 7, 32)     0           dense_1[0][0]                    
__________________________________________________________________________________________________
reshape_2 (Reshape)             (None, 4, 4, 32)     0           dense_3[0][0]                    
__________________________________________________________________________________________________
conv2d_3 (Conv2D)               (None, 7, 7, 32)     4128        reshape_1[0][0]                  
__________________________________________________________________________________________________
conv2d_7 (Conv2D)               (None, 4, 4, 32)     4128        reshape_2[0][0]                  
__________________________________________________________________________________________________
up_sampling2d_1 (UpSampling2D)  (None, 14, 14, 32)   0           conv2d_3[0][0]                   
__________________________________________________________________________________________________
up_sampling2d_3 (UpSampling2D)  (None, 8, 8, 32)     0           conv2d_7[0][0]                   
__________________________________________________________________________________________________
conv2d_4 (Conv2D)               (None, 14, 14, 16)   4624        up_sampling2d_1[0][0]            
__________________________________________________________________________________________________
conv2d_8 (Conv2D)               (None, 8, 8, 16)     4624        up_sampling2d_3[0][0]            
__________________________________________________________________________________________________
up_sampling2d_2 (UpSampling2D)  (None, 28, 28, 16)   0           conv2d_4[0][0]                   
__________________________________________________________________________________________________
up_sampling2d_4 (UpSampling2D)  (None, 16, 16, 16)   0           conv2d_8[0][0]                   
__________________________________________________________________________________________________
s_output (Conv2D)               (None, 28, 28, 1)    145         up_sampling2d_2[0][0]            
__________________________________________________________________________________________________
t_output (Conv2D)               (None, 16, 16, 1)    145         up_sampling2d_4[0][0]            
==================================================================================================
Total params: 92,024
Trainable params: 92,024
Non-trainable params: 0
__________________________________________________________________________________________________
Train on 60000 samples, validate on 10000 samples
Epoch 1/10

  128/60000 [..............................] - ETA: 43:25 - loss: 1187.0381 - s_output_loss: 343.9162 - t_output_loss: 843.1218
…
  s_enc_cls_model = Model(input=self.s_encoder.input, output=self.classifier(self.s_encoder.output[2]))
variational_ae.py:282: UserWarning: Update your `Model` call to the Keras 2 API: `Model(inputs=Tensor("t_..., outputs=Tensor("mo...)`
  t_enc_cls_model = Model(input=self.t_encoder.input, output=self.classifier(self.t_encoder.output[2]))
__________________________________________________________________________________________________
Layer (type)                    Output Shape         Param #     Connected to                     
==================================================================================================
s_input (InputLayer)            (None, 28, 28, 1)    0                                            
__________________________________________________________________________________________________
conv2d_1 (Conv2D)               (None, 28, 28, 16)   160         s_input[0][0]                    
__________________________________________________________________________________________________
max_pooling2d_1 (MaxPooling2D)  (None, 14, 14, 16)   0           conv2d_1[0][0]                   
__________________________________________________________________________________________________
conv2d_2 (Conv2D)               (None, 14, 14, 32)   2080        max_pooling2d_1[0][0]            
__________________________________________________________________________________________________
max_pooling2d_2 (MaxPooling2D)  (None, 7, 7, 32)     0           conv2d_2[0][0]                   
__________________________________________________________________________________________________
flatten_1 (Flatten)             (None, 1568)         0           max_pooling2d_2[0][0]            
__________________________________________________________________________________________________
s_z_mean (Dense)                (None, 10)           15690       flatten_1[0][0]                  
__________________________________________________________________________________________________
s_z_log_var (Dense)             (None, 10)           15690       flatten_1[0][0]                  
__________________________________________________________________________________________________
s_z (Lambda)                    (None, 10)           0           s_z_mean[0][0]                   
                                                                 s_z_log_var[0][0]                
__________________________________________________________________________________________________
model_2 (Model)                 (None, 10)           220         s_z[0][0]                        
==================================================================================================
Total params: 33,840
Trainable params: 33,840
Non-trainable params: 0
__________________________________________________________________________________________________
__________________________________________________________________________________________________
Layer (type)                    Output Shape         Param #     Connected to                     
==================================================================================================
t_input (InputLayer)            (None, 16, 16, 1)    0                                            
__________________________________________________________________________________________________
conv2d_5 (Conv2D)               (None, 16, 16, 16)   160         t_input[0][0]                    
__________________________________________________________________________________________________
max_pooling2d_3 (MaxPooling2D)  (None, 8, 8, 16)     0           conv2d_5[0][0]                   
__________________________________________________________________________________________________
conv2d_6 (Conv2D)               (None, 8, 8, 32)     2080        max_pooling2d_3[0][0]            
__________________________________________________________________________________________________
max_pooling2d_4 (MaxPooling2D)  (None, 4, 4, 32)     0           conv2d_6[0][0]                   
__________________________________________________________________________________________________
flatten_2 (Flatten)             (None, 512)          0           max_pooling2d_4[0][0]            
__________________________________________________________________________________________________
t_z_mean (Dense)                (None, 10)           5130        flatten_2[0][0]                  
__________________________________________________________________________________________________
t_z_log_var (Dense)             (None, 10)           5130        flatten_2[0][0]                  
__________________________________________________________________________________________________
z (Lambda)                      (None, 10)           0           t_z_mean[0][0]                   
                                                                 t_z_log_var[0][0]                
__________________________________________________________________________________________________
model_2 (Model)                 (None, 10)           220         z[0][0]                          
==================================================================================================
Total params: 12,720
Trainable params: 12,720
Non-trainable params: 0
__________________________________________________________________________________________________
Using TensorFlow backend.
/home/mrahman/.local/lib/python3.7/site-packages/tensorflow/python/framework/dtypes.py:516: FutureWarning: Passing (type, 1) or '1type' as a synonym of type is deprecated; in a future version of numpy, it will be understood as (type, (1,)) / '(1,)type'.
…
